lightning_logs/version_1/checkpoints/epoch=2-step=5625.ckpt (torch, 252533 bytes, 10 tensors)

conv1.weight f4 [6, 1, 5, 5]
000000 f1 d6 82 3e 3b c6 be 3e 49 4b 33 3e a7 9c 88 bd
       0.25554612 0.37260613 0.17509188 -0.06670504
000010 8a 44 1e be d4 03 8c 3e 91 85 85 3d 1e 54 27 3d
       -0.15455833 0.2734667 0.065196164 0.040851705
000020 fc 4a 00 3e e5 ae 8a 3d a7 34 91 3e ee fd 51 3e
       0.12528604 0.0677164 0.28360483 0.20507023
000030 65 21 44 bd de 60 75 bd 20 18 87 bd 7d 15 1c 3e
       -0.04788341 -0.059906833 -0.06596398 0.15242572
000040 7f 6c a1 bc 6f 90 29 3e a2 8c 59 be 55 30 6f bd
       -0.019705055 0.16559003 -0.21245053 -0.058395702
000050 23 96 b8 3b d5 f9 2c 3e 62 d2 75 3d 36 98 b1 bd
       0.005633132 0.16892178 0.06001509 -0.0867161
000060 82 be ad 3d f5 dc e7 bc a2 aa 70 3e 19 50 70 3e
       0.08483602 -0.028303603 0.23502591 0.23468055
000070 17 0a be bd 53 8a 9a 3c c4 01 b8 3e 9d e1 c5 3e
       -0.09279268 0.018864786 0.35938847 0.38648692
000080 07 3c fc 3a 0e 54 d8 ba b9 6b 24 3e ea e2 8d 3e
       0.0019243964 -0.0016504542 0.16056718 0.27712184
000090 82 b0 d3 3e a6 e1 5d 3e 33 6c c4 3d 9d d4 fb bd
       0.41345602 0.2166811 0.0959095 -0.12296412
0000a0 d8 5e 42 3e 31 ff e5 3d bb f8 d7 bd ae 6f 44 be
       0.18981493 0.112303145 -0.105454884 -0.19183227
0000b0 63 b9 b8 3c 0f de ed 3d 13 b4 27 3e 73 75 ef bd
       0.022549337 0.1161462 0.16377287 -0.116923235
0000c0 c1 04 dc bd 60 ff 29 bc 9c 23 61 bd 05 c6 00 be
       -0.10743094 -0.010375828 -0.0549656 -0.12575538
0000d0 5b e8 0f 3e aa 9c d6 bd 7c 98 3e bd 44 0e df bc
       0.1405348 -0.104791 -0.04653214 -0.027228482
0000e0 6a 7a b5 bd 1d b4 c7 3d 0b 5d 60 3c 37 3f fa bb
       -0.08861239 0.09751151 0.013694058 -0.0076369303
0000f0 ae 70 b8 bd 74 a5 11 3d 67 56 cb bd f8 f8 82 3d
       -0.09005867 0.03555818 -0.09928589 0.06395143
000100 07 eb c2 bd a6 9f db 3d da e5 8d 3e c2 88 96 3e
       -0.09517484 0.1072381 0.27714425 0.29401213
000110 c4 df c1 3e 6f 4a a3 3e 8d d3 9c 3d 28 76 a4 3a
       0.37866032 0.31892726 0.076575376 0.001254742
000120 38 31 a2 3e e9 32 8e 3e 55 60 d0 3d bc 2c 47 be
       0.31678176 0.27773216 0.10174624 -0.19450659
000130 3a 5a 06 be a8 5a 14 be 61 6a 08 3d 33 ba 94 bd
       -0.13120356 -0.14487708 0.033304576 -0.07262077
000140 31 3d 21 be 6d 31 46 3e 2a 19 1d be 68 92 cc 3d
       -0.15745999 0.19354792 -0.1534163 0.09988862
000150 d6 97 0a be 61 54 29 3d 7f f1 e4 3d b5 d0 df bd
       -0.13534483 0.041340236 0.11178874 -0.109284796
000160 e5 4d e9 bb 95 5a 1f be 9f 7a fc 3d 2a da aa bd
       -0.0071198815 -0.15561898 0.123280756 -0.08342393
000170 2b d9 3b 3e 5b b1 96 bd 54 09 ae bd 50 ff 94 3c
       0.18344562 -0.073580466 -0.08497873 0.018188149
000180 5b 48 32 3c b7 72 17 be 15 9b db bd 28 90 3f be
       0.010881509 -0.14789854 -0.10722939 -0.18707335
000190 73 fb c2 bd 69 93 8f 3e 3a 1a e0 bc 58 62 11 be
       -0.095206164 0.28042153 -0.027356256 -0.14197671
0001a0 00 77 1d bd 1b be 3c 3e ec bd 68 3e 46 af 75 3e
       -0.038443565 0.18431894 0.227287 0.23992643
0001b0 ef a2 92 3e 52 6a 5c 3e d5 f8 de 3e f4 17 3f 3f
       0.28639933 0.21524933 0.4354922 0.74645925
0001c0 73 e8 3c 3f 52 b0 b6 3e bb f7 c3 3e 83 0c 0d 3f
       0.7379219 0.35681397 0.3827494 0.55097216
0001d0 4e ab fb 3e 67 5f 10 3f f9 42 19 3f 5c 6b f2 3e
       0.49154133 0.5639557 0.5986782 0.47347534
0001e0 1f 70 b2 3e 25 35 c7 3e bb e8 d3 3e 1b 8c 77 3e
       0.34851167 0.38907734 0.41388497 0.2417454
0001f0 72 87 68 3e 6b db f5 3b d6 18 8b 3d c3 90 55 3e
       0.22707918 0.0075029633 0.067918465 0.20856003
000200 42 35 68 3e 81 92 62 3e 48 12 5c be 95 e2 95 3d
       0.22676566 0.221262 -0.21491349 0.07318608
000210 be 8c a4 3e 7e 71 b1 3e ee 22 f9 bd 00 79 ff bd
       0.32138628 0.346569 -0.121648654 -0.12474251
000220 22 fd cc 3e f9 c5 d8 3e f6 b0 40 3d 0e 0f dc 3d
       0.40036875 0.4233854 0.047043763 0.10745059
000230 87 42 ac 3e 79 35 d2 3e 12 c0 47 3e 24 89 5b 3d
       0.33644506 0.4105642 0.19506863 0.053597584
000240 99 66 8c 3e 6e 15 b4 3e 14 e3 2d 3c c0 ec 2a 3e
       0.27422026 0.351726 0.010613222 0.16691875
000250 ee dd 3f bd 64 b7 04 bd
       -0.046842508 -0.032401457

conv1.bias f4 [6]
000000 77 58 c1 3d 13 69 a3 3a 17 2c bf 3d fb dc 0d be
       0.094407015 0.0012467228 0.09334581 -0.13853829
000010 fa f7 7a 3a 87 07 e3 38
       0.00095736946 0.000108256056

conv2.weight f4 [16, 6, 5, 5]
000000 9f 8f 86 3d 7f ba 17 bd 71 7e 9a bc b9 9a fe bb
       0.06570362 -0.03704309 -0.01885912 -0.007769909
000010 db de cf 3c 38 8a 5a ba 40 5b 74 bd c0 75 01 3c
       0.02537482 -0.0008336636 -0.059657335 0.007901609
000020 ec 0c c6 3a 17 cf 39 3d cb ca c2 bd 71 8f f8 bd
       0.0015110052 0.045363512 -0.09511336 -0.12136734
000030 c4 1e 45 3d dc 17 11 3e 37 02 32 3d 0d c1 92 bd
       0.048125044 0.14169258 0.043459143 -0.07165728
000040 78 21 41 bd 98 c1 e5 3d 95 aa c9 3c 8a 52 39 3d
       -0.04715106 0.11218566 0.024617473 0.04524473
000050 37 4c 6a ba 53 fb ea bc cf 24 cf 3d 3b b9 47 3d
       -0.00089377485 -0.028684294 0.101144426 0.048760634
000060 5b e4 2a 3d 0d d0 f3 bc 3b 11 75 3c 2c cf b6 3b
       0.041721683 -0.029762292 0.014957721 0.005578896
000070 58 3f 8f bc c0 ac 6d 3d 06 fb b0 bc 2a 1a 15 3d
       -0.01748626 0.058026075 -0.021604072 0.036401905
000080 af 8e 89 bc 95 c9 ee 3d 31 a8 9b bd 4d 57 00 3d
       -0.01679167 0.116595425 -0.07600439 0.031333257
000090 dd a9 04 be c3 97 99 3d 4d 54 c1 3d 46 14 e7 bc
       -0.12955423 0.074996494 0.09439907 -0.02820791
0000a0 1e a6 db bd 7e 03 2e bd 67 ff 68 3d a4 5c c4 3d
       -0.10725044 -0.0424838 0.056884196 0.09587982
0000b0 22 9c bf bd dd e2 b5 bd 8a 7d 49 bd 47 51 ea 3d
       -0.09355952 -0.08881161 -0.04919199 0.11441284
0000c0 67 f2 3f bd f4 1d 22 bd ef 62 76 bc 32 48 6e bc
       -0.046862032 -0.039579347 -0.015038236 -0.01454358
0000d0 33 38 b3 3d 18 b5 72 b8 4e d7 00 3d d1 78 90 3c
       0.087509535 -5.7865953e-05 0.03145533 0.017635735
0000e0 78 6f c5 3d 29 02 94 3c 81 eb f3 3c 85 c5 ad bd
       0.096404016 0.018067436 0.029775383 -0.084849395
0000f0 de c5 20 3c 54 19 88 3d fd d6 1a 3d de a7 e8 bc
       0.0098128 0.06645456 0.037802685 -0.028400358
000100 b3 8c 7e bd a1 27 89 bd f3 72 81 bc 95 9d 7c 3b
       -0.0621459 -0.06697012 -0.015801882 0.0038546075
000110 36 56 1b 3d 11 35 85 3b 53 7e 9a bd bd 5e d7 bb
       0.037924014 0.004065164 -0.07543626 -0.006572573
000120 e5 e1 d8 bc 62 ca 9c 3d 7c 71 6c bd 0e 1f 2b 3d
       -0.026474902 0.07655789 -0.057725415 0.041777663
000130 76 c6 89 bc 46 92 04 3c ba 6a c1 bc b0 b2 82 bd
       -0.016818266 0.008091515 -0.023610462 -0.06381738
000140 e4 1a 35 3c d1 5b 8a 3d 98 8e 80 bb 78 b0 7d bc
       0.0110537745 0.06755794 -0.0039232485 -0.015483968
000150 f3 80 57 3d 5d 4b 65 3d 56 b4 7d bd a8 05 86 bc
       0.05261321 0.055980075 -0.06193956 -0.016360119
000160 87 30 f4 bb 3c a7 2b 3d 15 61 9c bd 69 a3 11 3d
       -0.007452074 0.041907534 -0.076357044 0.03555623
000170 72 08 25 bc 75 a7 c3 bc 7a 26 8f bd 96 38 15 3d
       -0.010072814 -0.02388356 -0.06989761 0.036430918
000180 03 65 81 3d 62 af 13 3d 35 2e 17 bd 3f 5b 91 3c
       0.063180946 0.03605593 -0.0369093 0.017743705
000190 dc 90 43 bd c0 84 9d 3b ca 85 07 3c 37 72 05 bd
       -0.04774557 0.004807085 0.008271644 -0.032579627
0001a0 72 80 91 3d ac 1d 19 be 2c 91 2e 3c e4 94 ae 3d
       0.07104577 -0.14952725 0.010654729 0.085244924
0001b0 7b dc 64 3c 51 b1 e7 bd 9e 02 0d be 28 3f 36 bd
       0.013968582 -0.11313117 -0.1377053 -0.044493824
0001c0 2b 00 15 3e 18 8f 80 bc da 36 00 be 37 19 15 be
       0.14550845 -0.015693232 -0.12520924 -0.145604
0001d0 f6 8e 7f 3d 6d 09 f1 3d e6 1a 8e bd 05 dc 0e bc
       0.062392198 0.11769376 -0.06938724 -0.008719449
0001e0 fc 8f f4 bc c8 1a 37 bb 4c 5c b0 3d 20 a8 86 3d
       -0.029853813 -0.0027939547 0.08611354 0.06575036
0001f0 ea e8 be bd eb 7b cd bc ba aa 8d bd e5 f9 68 3c
       -0.093217686 -0.025083503 -0.06917329 0.014219736
000200 92 e2 7f 3d 2b 2c 31 3d 43 fb c7 bd 97 a3 bd bd
       0.062471934 0.043255012 -0.09764721 -0.09259718
000210 11 59 4c 3d 04 68 19 bb 28 e6 81 3d 0b 36 9c bc
       0.049889628 -0.0023407945 0.06342727 -0.019068738
000220 41 5e 00 bb e9 84 1f 3e 74 2e a8 3c 96 00 ef bd
       -0.001958743 0.15578045 0.020529963 -0.11670034
000230 32 7e 59 bd af bf dd bb 8b 9b b5 3d 64 8d 67 bc
       -0.053098865 -0.006767235 0.08867558 -0.014132831
000240 61 62 e1 bd d7 ca 4b 3d b0 a9 e3 3d 14 8c ed bc
       -0.110050924 0.04975399 0.1111635 -0.028997459
000250 06 72 4e 3d fd ba 9f bc 6a 7e 68 bc b6 93 ac bd
       0.05040171 -0.019498343 -0.014190296 -0.08426611
000260 f2 7e db bc bf ce e4 bc 0a 45 df bc b8 ed 30 3d
       -0.02679393 -0.027930615 -0.0272546 0.043195456
000270 a0 2e bd 3c a7 25 b5 bd 43 05 e2 bb 04 64 3c bc
       0.023093522 -0.08845072 -0.0068976 -0.011498455
000280 72 39 25 3d 83 85 8c 3d 09 56 1c bd 2f 1c 58 3d
       0.040337987 0.06861403 -0.038167987 0.052761253
000290 34 83 cb 3d 70 7f 15 3d 77 98 f9 3c e5 a9 cf 3d
       0.099371344 0.036498487 0.030468209 0.10139827
0002a0 cc a9 12 3d 8b 6c 51 bd 4f 91 0a 3d ed fd 79 bd
       0.035806462 -0.051128905 0.033829983 -0.061033178
0002b0 9c db 87 3c fb 19 f6 37 98 f0 67 bd 0e 3c b4 bc
       0.01658421 2.9337583e-05 -0.056625932 -0.022001293
0002c0 43 61 e0 bd 87 ab da bd 56 78 35 bd 65 b5 82 3d
       -0.10956051 -0.106772475 -0.044304214 0.063822545
0002d0 f2 22 34 3b 67 32 50 3c b5 53 a6 3d 53 ee 81 bb
       0.002748665 0.012707329 0.081214346 -0.003965178
0002e0 4d 5a 33 3d 8a d7 6c bd a0 25 7e bd 75 80 af 3c
       0.04378729 -0.05782274 -0.0620476 0.021423558
0002f0 31 5b 00 bc 54 93 8d 3d b6 b0 85 3d 94 51 af 3d
       -0.007834242 0.06912866 0.065278456 0.08560482
000300 51 04 4b bd e8 ed 5c bc d0 a5 05 bc c5 e1 85 3c
       -0.049564663 -0.013484456 -0.008157209 0.016343007
000310 10 b4 7f bd 28 ae 1d 3c c7 ed d1 bd 07 e3 36 bd
       -0.06242758 0.009624042 -0.102504306 -0.044650104
000320 1c 6c 8d 3c 5c b9 35 3d e0 27 7f 3d 7e 98 ee 3d
       0.017263465 0.044366226 0.062293887 0.11650179
000330 57 85 6e bc f3 b8 d6 bc 8b df c1 3d 9e 5f 0e bd
       -0.014558158 -0.026211238 0.094664656 -0.034759156
000340 f1 8e 46 3d 34 b6 69 3d d4 09 9d bc 19 c8 3e bd
       0.048476163 0.057058528 -0.019169725 -0.046577547
000350 0e f2 ce bd c9 78 8a bd ed 87 fa bd ff 10 86 bd
       -0.10104762 -0.06761319 -0.12232957 -0.065462105
000360 53 bb c7 bb e9 47 f6 3c 31 8e 85 3c 61 42 65 bd
       -0.006095329 0.030063586 0.016303154 -0.055971507
000370 06 a7 ed bb cb 55 0e bd 19 6d b1 3d 78 1c 9a 3d
       -0.0072525768 -0.034749787 0.08663387 0.07524961
000380 59 07 4c bc 0a 31 ce 3c 52 43 21 3d 84 ef 36 bd
       -0.012452924 0.025169868 0.039370842 -0.044662014
000390 e3 e0 f7 bc ef 00 d7 bc ec a9 2c bc 12 e7 63 bd
       -0.030258602 -0.026245562 -0.010538559 -0.055640288
0003a0 6c 5a 72 3d 79 28 5b bd f8 ff 73 bd e4 1e 9c bd
       0.059168264 -0.053505395 -0.059570283 -0.076230794
0003b0 5e 8e bd bb c8 dd 79 3d 57 3e 23 3d be 09 22 ba
       -0.0057847938 0.061002523 0.039854374 -0.0006181261
0003c0 53 2c 8d 3b 51 c4 73 3d 51 b5 20 bc 8d e2 0d bc
       0.0043082624 0.059513394 -0.009808854 -0.008659971
0003d0 bd 25 87 bc 14 91 a6 bd 01 df 38 bd 92 09 2e 3d
       -0.016497487 -0.0813314 -0.045134548 0.042489596
0003e0 da ca 10 3d 46 95 6e 3d 60 14 b7 bd 27 6f 9b bd
       0.035349704 0.058247827 -0.08939433 -0.0758956
0003f0 c3 a5 c8 3c 0a 57 fc 3d e7 a3 47 3e ab 02 7c bb
       0.024493104 0.12321289 0.19496118 -0.0038453739

conv2.bias f4 [16]
000000 bc fb ec bc 77 ac cb 3d f0 72 53 3c 84 dd 60 bd
       -0.02892863 0.099450044 0.012905821 -0.054898754
000010 2c 23 12 bc 94 3e 6b 3d 53 a7 28 3c bd fd ad 3c
       -0.008919518 0.057432726 0.010293799 0.021239156
000020 ff be 13 bd e7 81 c6 3b 18 78 b3 3d 53 69 fc 3d
       -0.03607082 0.006057966 0.087631404 0.123247765
000030 5f a0 3b bd f1 39 e7 bc 50 60 b1 3c c0 0f 93 bd
       -0.04580724 -0.02822587 0.02165237 -0.071807384

fc1.weight f4 [120, 400]
000000 ce 1a 30 3c eb 52 5e 3c c9 3d e5 3c 27 ef c4 3c
       0.010748578 0.013569574 0.027983563 0.024039818
000010 f1 80 b0 bb 50 2c 2d bc 8a 8a 04 3d 4f 37 14 bb
       -0.0053864648 -0.010569647 0.032358684 -0.0022615974
000020 ca a6 bb 3b 55 e5 33 bd 4f 05 f1 3c 7e f3 a3 bb
       0.00572667 -0.04391988 0.029421477 -0.0050033918
000030 57 b0 2e bd 5e 2a 27 bd 00 a0 c3 bc 8f 8b 05 bc
       -0.04264864 -0.04081189 -0.023880005 -0.008150949
000040 6e 8d 05 3d a0 44 83 bc 3b 1f a4 bc 62 23 ac bb
       0.03260558 -0.016023934 -0.020034423 -0.0052532414
000050 39 ac 55 3c a7 5e 05 bd d5 1d 58 bb 8e 7d 0b 3d
       0.013041549 -0.03256097 -0.0032976766 0.034055285
000060 f7 e1 ee 3c 91 9b 19 3d 73 45 d2 bc 15 c0 3f bc
       0.029160483 0.037501875 -0.025667882 -0.011703511
000070 e0 52 95 3c 6e 5b 93 3b e5 4d 3f 3d e3 a3 0e bd
       0.018227994 0.0044969833 0.046705145 -0.034824263
000080 ff fd 0c bc 6d b0 73 3d 23 4e 82 bc 8f 1f f3 bc
       -0.008605479 0.059494425 -0.0159064 -0.029678134
000090 c9 42 f6 bb 7b 2b 79 3c de e9 fa bc 61 96 d4 bc
       -0.0075152856 0.01520812 -0.030629095 -0.025950613
0000a0 05 95 89 bc ac eb 5a bd af 1e 19 bc 35 6a d8 3c
       -0.01679469 -0.05344741 -0.009345694 0.026417831
0000b0 fb 7d 20 3c e6 cb 66 3d d1 e8 47 3c 01 04 ae bc
       0.009795661 0.056346796 0.012201504 -0.021242144
0000c0 58 b8 ee 3c 9d d2 32 bd 43 ba 28 3d 73 1d 6b bd
       0.029140636 -0.043657888 0.041193258 -0.05740113
0000d0 7a 6a e0 bc 55 48 ca bc fe 96 09 3d 80 b9 14 bc
       -0.027394522 -0.024692694 0.033591263 -0.00907743
0000e0 4a 69 c8 bc 18 41 66 3d d3 8f e6 3c 16 43 03 bd
       -0.024464268 0.056214422 0.028144753 -0.0320464
0000f0 8f f2 7c 3d 04 f4 a7 3a 80 1f 98 3c 8f ee 37 bd
       0.06175476 0.0012813811 0.018569708 -0.04490524
000100 62 d7 24 bd 22 e9 2d 3c 2e 62 55 3d e8 5c 1d bc
       -0.040244468 0.010614665 0.052095585 -0.00960467
000110 81 ad 3c 3d f4 a5 e9 bb 37 e4 98 3b 16 24 bb 3c
       0.046063904 -0.007130379 0.004665877 0.022844356
000120 98 4e 43 3d 17 8d 3e bd e8 7f fa 3c d8 a7 3e bc
       0.047682375 -0.046521273 0.030578569 -0.011636697
000130 a0 60 2e 3b 9b b7 34 bd d5 23 9a bc 5a d2 6d 3d
       0.0026607886 -0.044120412 -0.018815914 0.058061935
000140 e2 73 99 3c 25 ca f6 bb 70 fd 95 3c 30 6b 53 3c
       0.018732015 -0.0075314217 0.018309325 0.012903973
000150 b8 eb da 3c 24 ac 6b 3c 92 8f 88 bd a3 29 52 bd
       0.026723728 0.014384303 -0.06668009 -0.05130924
000160 67 90 0d 3d 6a 44 98 ba 3e f5 55 3d 9b 2f 86 3d
       0.03456154 -0.0011617069 0.052235834 0.06552049
000170 4e ce 3a 3d bd 5d 02 3d 9b a1 e4 3c e5 86 00 3d
       0.045606904 0.031827677 0.02790909 0.031378645
000180 62 a4 89 3c 5a ca e0 ba c5 47 9b 3b d1 0c 32 bd
       0.016802017 -0.0017150149 0.00473878 -0.043469254
000190 86 80 48 bd c0 05 c5 bc 51 fc d3 3b f1 61 e6 bc
       -0.048950695 -0.024050593 0.0064692874 -0.028122874
0001a0 be 8f d5 3c e2 d6 fd 3c aa 62 99 bc 09 4e 68 3c
       0.026069518 0.030986253 -0.018723805 0.014178761
0001b0 34 bc 57 bc 1e 82 94 bc a4 1f ca bc cf a2 92 bc
       -0.01316743 -0.018128451 -0.02467329 -0.017899899
0001c0 97 76 85 3d 03 7c 1f bd 51 fc d4 3c 30 dc 22 bd
       0.0651676 -0.038936626 0.02599922 -0.03976077
0001d0 ff c9 be 3c d1 da be 3c e1 40 f4 3c f8 40 e4 3b
       0.023289679 0.0232977 0.029816093 0.0069657527
0001e0 91 b8 db bc d2 61 02 3a 27 5b ef bc ff 81 14 3d
       -0.026821407 0.0004973683 -0.02921827 0.036256786
0001f0 72 15 08 3c 0f 7b a7 bc 49 29 57 3d 34 c9 9c 3b
       0.008305894 -0.020444421 0.052529607 0.0047847275
000200 d9 f3 ec 3c 83 3f a1 3b 53 7f 20 bd 1a 6d fb bc
       0.02892487 0.0049209013 -0.039183926 -0.030691672
000210 3c d0 8e 3d fb 38 1e 3d c2 b0 1a 3d 55 b6 0b 3d
       0.06973311 0.03862856 0.037766226 0.034109432
000220 4c 92 84 bc d3 cd 3b 3c c8 53 9b 3c db 9f 40 3d
       -0.016183041 0.011462647 0.018960848 0.04702745
000230 b2 cc 42 bd bf 4f 04 3d 99 2b 54 3c 1a c6 15 3d
       -0.047558494 0.032302614 0.012949848 0.036565877
000240 2d c0 44 3d 0f 62 b3 bc 64 09 29 ba 83 86 d7 3b
       0.048034836 -0.021897344 -0.00064482377 0.0065773143
000250 ba c1 61 3d 9e 7b 0e 3d db 80 16 bd b0 b6 15 bd
       0.055116393 0.03478586 -0.03674398 -0.036551178
000260 64 e6 79 bd a0 b5 a6 bd f1 ac 43 3d 00 7d 53 bd
       -0.061010733 -0.08140111 0.04777235 -0.05163288
000270 a0 c4 f2 3c 94 61 42 bd 5f e6 b8 bc f7 72 95 3c
       0.029634774 -0.04745634 -0.022570787 0.018243296
000280 ce 97 2b 3c fd 67 e2 3c cf 2e b0 39 37 a0 08 bd
       0.010473205 0.027637476 0.0003360421 -0.033355918
000290 c2 65 39 3d 2c 1c 33 3d a8 4b 20 bd f4 a9 42 3c
       0.04526306 0.04372804 -0.03913465 0.01188134
0002a0 c5 78 66 bc 46 b4 ea 3c 2d a9 8d bc 4d 19 35 bd
       -0.01406688 0.028650414 -0.017292583 -0.04421358
0002b0 2e ef 71 3d c1 73 8d bc 0e 18 f6 3c 30 0e 15 3d
       0.05906599 -0.01726711 0.030040767 0.036390483
0002c0 28 2e 12 3d 27 de 9a 3a a7 c6 f7 3a 73 15 ca bc
       0.03568855 0.0011815474 0.0018903808 -0.02466843
0002d0 48 53 e9 3c 73 b3 d7 3c f1 f7 25 bd cd b5 f1 3b
       0.028482094 0.026330685 -0.04051966 0.0073764087
0002e0 da 5c fe bc 5c d1 8d 3c 45 df 99 bb 6d 14 cf bc
       -0.031050134 0.017311744 -0.0046958053 -0.025278294
0002f0 79 72 bb 3c 1f 14 a2 bd 6f e6 91 3c 71 99 06 bd
       0.022881733 -0.07913994 0.017810075 -0.032861177
000300 45 ce a3 bc 2d df 81 3d 46 58 3e bd 63 6f 02 3c
       -0.019995818 0.063413955 -0.046470903 0.007961127
000310 2a f0 0f bc 86 65 81 3b e2 a3 2f 3d 39 a5 03 3d
       -0.008785287 0.00394887 0.0428809 0.03213999
000320 08 ff 44 bd 76 c8 e2 bb e4 c5 14 bd 0b 07 fe bc
       -0.04809478 -0.0069208695 -0.036321536 -0.031009218
000330 ae 0d 23 3d 86 1b a8 3a 11 54 b6 bb ec 4c bb 3c
       0.039807968 0.0012825585 -0.0055642207 0.022863828
000340 7b f8 46 3d 05 0b dd bc c3 79 20 bc a5 48 28 3d
       0.048576813 -0.026982794 -0.009794655 0.041084904
000350 7e de 20 bd cf e1 fb bc 93 ec 0c 3d fb 89 1c bd
       -0.039274685 -0.030747322 0.034405302 -0.038217526
000360 59 a5 44 3d d3 f8 4a 3d d7 6f 70 3c b4 ef b2 3c
       0.04800925 0.049553704 0.014675102 0.021842815
000370 cc d9 48 bd d0 ea 9c bc 39 70 0e 3c 3c a6 34 bd
       -0.049035832 -0.019154936 0.008693748 -0.044103846
000380 a5 cb 2d bd c8 d4 26 3d 27 61 64 3c af 2d 41 3d
       -0.04243054 0.040730268 0.013939179 0.047162708
000390 d0 a6 f9 bc 6d 3a 43 3d 92 7a 6e 3c 35 8a cb 3c
       -0.03047505 0.04766314 0.01455559 0.024846176
0003a0 05 e0 33 3d 02 91 1b 3d c7 ed b8 3a 41 77 28 3d
       0.043914814 0.037980087 0.0014108949 0.041129354
0003b0 db 67 e8 3b 5d 7b e7 3b 0f d9 2f bd 2f 01 85 3c
       0.0070924587 0.0070642666 -0.042931613 0.016235916
0003c0 24 8e 05 3d ea b7 b5 3c ee 0c 50 3d 93 11 b5 bc
       0.03260626 0.022182424 0.05079358 -0.022103107
0003d0 d2 3e 19 3d af ae 8d 3c e6 42 9d bb e3 d7 d5 bc
       0.037413426 0.01729521 -0.0047992347 -0.02610392
0003e0 b5 f7 38 3d 65 54 a9 3b 99 8c 34 bd 50 f0 0b bd
       0.045158107 0.0051675313 -0.044079397 -0.034164727
0003f0 cb d2 19 bd 16 7a 36 bc ea c0 99 3d 66 0a 9d 3a
       -0.037554543 -0.011137506 0.075074986 0.0011981248

fc1.bias f4 [120]
000000 9b 7a b9 3b 10 04 38 3c 83 98 1c 3d 4c bb 43 3d
       0.0056603677 0.011231437 0.038231384 0.047786042
000010 fe b0 a5 bc 17 89 b6 3c c7 44 1e bd f7 f7 04 bd
       -0.020225998 0.022282166 -0.03863981 -0.03246304
000020 48 79 10 bc 9b a1 96 3b 5d e8 e5 3c 93 0f cb 3c
       -0.008817978 0.0045969016 0.028064901 0.0247877
000030 7b a9 a0 bc 6f 94 18 3d 90 d0 ff 3c cf 0e d0 3c
       -0.019612065 0.037250932 0.03122738 0.025397686
000040 6b e2 cc bc 1e b7 48 bc 5a 37 a8 bc d2 b3 9c bb
       -0.025010308 -0.01225069 -0.020534206 -0.0047821784
000050 33 00 22 bd 0c b5 1a bc 50 65 23 3d 80 f2 ce bb
       -0.03955097 -0.009442579 0.03989154 -0.0063155293
000060 9d 43 18 3d aa 4a cc 3c 0c 5d 0b bd d4 75 d0 bc
       0.037173856 0.024937946 -0.034024283 -0.02544681
000070 19 ee 83 3d 2b 4a 00 bd ba 65 a6 39 82 8e 38 bd
       0.06441898 -0.031320732 0.0003173778 -0.04505778
000080 49 66 38 3d 71 28 82 3d 73 58 0b bd f6 dd 03 3d
       0.04501942 0.0635537 -0.0340199 0.0321941
000090 b0 2b 43 bc 0e f4 6a 3d d2 11 64 3d 0d b8 cf 3b
       -0.011912271 0.057361655 0.055681057 0.0063390792
0000a0 24 73 62 3b ef 09 b3 3c b7 5d 18 3d 20 12 22 3d
       0.0034553492 0.021855323 0.03719875 0.039568067
0000b0 a9 7f 78 bc de f8 28 bd e7 83 c4 bc 75 5c ae 3c
       -0.015167155 -0.041252963 -0.023988677 0.021284321
0000c0 1d 97 a5 bc 42 37 11 bd e5 ca 1c 3c 0a 55 1f bb
       -0.020213658 -0.03545309 0.009569858 -0.0024312162
0000d0 32 48 c1 3c 4d 46 33 bd 33 55 38 bc d0 4f 54 bc
       0.023593996 -0.043768216 -0.011250782 -0.012958482
0000e0 9c 88 36 3b 18 13 9f 37 f6 de 6e bc de b5 03 3d
       0.0027852422 1.8963168e-05 -0.014579525 0.032155864
0000f0 9a 7c 93 bc 00 c4 21 bc b3 d3 0f bd eb f2 7b 3d
       -0.01800375 -0.00987339 -0.035114 0.06151096
000100 5e 0e 82 3c 2f 7d a6 ba 4e 8b 12 bd 25 f9 11 bd
       0.015875991 -0.0012702103 -0.035777383 -0.035637993
000110 36 83 ed 3c 7e ac 27 3d b6 86 a9 bc e4 3f 8e 3c
       0.02899323 0.040935986 -0.020694118 0.01736445
000120 9d 3b 78 3c d7 d9 17 3d d7 e6 0e bc b4 43 7b 3c
       0.015150932 0.037072983 -0.008722029 0.015335966
000130 6e 88 09 3d e2 44 2f bd be 55 0d bd 83 09 3e 3d
       0.033577375 -0.0427903 -0.0345056 0.04639579
000140 14 15 9a bb 76 59 91 bb e3 a7 9d bb 2f 63 d0 3c
       -0.0047022197 -0.0044357134 -0.0048112734 0.02543792
000150 8f 32 95 bc ff ac dc 3c 0b 3f d4 bc 4f 22 78 3d
       -0.018212585 0.02693796 -0.025908967 0.060579594
000160 11 e4 28 bd 72 57 46 3c 0d 36 d9 bc 19 f4 23 bb
       -0.041233126 0.0121058095 -0.026515031 -0.002501732
000170 37 e8 0e 3d ea 8e cb bc 48 03 01 3d 1f 83 1a bd
       0.034889426 -0.02484842 0.03149727 -0.037722703
000180 e5 9f ce 3c 15 cd 22 3d 0b e6 25 bd 2e f2 6a 3c
       0.025222728 0.039746363 -0.04050259 0.014339967
000190 e3 8a 69 3c f5 2a 05 bd 94 38 7f bc bb 59 5c 3d
       0.014254305 -0.03251167 -0.015577454 0.05379651
0001a0 8c e7 a5 3b d4 99 8d bb 29 ab 85 bb 7f 6f 17 bd
       0.005063003 -0.0043213163 -0.004079242 -0.036971565
0001b0 df 01 67 3d 20 5b d0 bc 8d 3b 17 3d 0f 20 bf 3b
       0.05639827 -0.025434077 0.036922026 0.005832679
0001c0 97 44 05 3d 1d 65 14 3d 57 ca 81 bc f6 14 78 3b
       0.032536115 0.03622924 -0.015843553 0.003785429
0001d0 46 89 3f bb da b2 33 bd 81 51 30 bd 3a b1 a8 ba
       -0.0029226108 -0.043871738 -0.04304648 -0.00128702

fc2.weight f4 [84, 120]
000000 1e 58 18 3d 72 58 ad 3d 72 9c 84 bd 9c 91 a3 bd
       0.03719341 0.08464135 -0.06475152 -0.07986757
000010 25 16 0a bc 7e 18 42 3d ff 8b 5b 3d c9 17 ad bd
       -0.008428131 0.04738664 0.053600308 -0.08451802
000020 cc 3a fc 3c 37 e2 5e bd 88 ec 6d 3d 52 ad 1d 3c
       0.030789755 -0.054414954 0.058086902 0.009623842
000030 fb dc 4f 3c d8 28 53 3d 27 bf 1a bd 7f d3 a8 3c
       0.012686963 0.051552624 -0.037779953 0.020608662
000040 0f 8d b0 3d bb 37 89 bd d2 a6 62 ba 89 b1 9c 3c
       0.08620655 -0.06700083 -0.0008646074 0.019127624
000050 a1 66 00 bc a1 1c 0f bd f3 b4 4e 3d 07 28 11 bd
       -0.007836969 -0.034939412 0.050465535 -0.035438564
000060 4a 3e 29 3c b0 b5 4b 3b 0d be ac bd c7 0b 06 3d
       0.010329792 0.0031083636 -0.08434687 0.032726076
000070 fa 8b 9d bd a8 80 98 bd e8 57 b0 bd f7 35 dd bc
       -0.07692714 -0.07446414 -0.08610517 -0.027003272
000080 df 44 c9 bc d5 b7 93 3c ac 3b 40 3d c2 ef 41 3c
       -0.024568973 0.018031994 0.046931908 0.011836948
000090 95 cb 63 bd 42 2b 61 bd 47 20 95 bd 83 1d 0e bc
       -0.055614073 -0.054972894 -0.07281547 -0.008674028
0000a0 df 3b e7 bc d1 66 8c 3c 9b db e8 3c 4f 60 95 bd
       -0.028226791 0.01713887 0.028425029 -0.0729376
0000b0 ea 76 c2 3c 5f 44 2f 3d b3 de 2f 3d 52 5e 84 bd
       0.023738343 0.042789813 0.042936992 -0.06463303
0000c0 8b 02 17 3d 39 ed 96 3d 62 71 b7 bd 16 3a 10 bd
       0.03686766 0.073694654 -0.08957173 -0.035211645
0000d0 29 e3 a6 3d 0c 17 84 3d 1a 01 8c 3c 29 f0 a7 bc
       0.08148796 0.06449708 0.017090369 -0.02050026
0000e0 fd 63 49 3d 08 f6 99 3d 24 49 0d 3c cd 35 40 3c
       0.049167622 0.0751763 0.008623395 0.011731577
0000f0 75 4b 87 bd 09 7a 23 bc 79 cb 00 3d 08 ba 58 bd
       -0.06606189 -0.009977826 0.031444047 -0.05291179
000100 69 68 ac bd 91 82 a5 3c a1 0d 92 bc 36 f4 25 bd
       -0.08418352 0.02020386 -0.017828764 -0.0405161
000110 56 85 a9 bd 19 2b 8a bd 5b 84 8b 3d 22 f6 8e 3d
       -0.08277385 -0.067465015 0.06812354 0.0698054
000120 07 4f e5 3c 42 a4 59 3b 2e cd ba bd ee 75 d6 bc
       0.027991785 0.0033209478 -0.09121166 -0.02617928
000130 6b 00 a5 3d 60 18 a8 bd 06 19 99 3d d7 30 98 3d
       0.0805672 -0.08207774 0.07475476 0.074311905
000140 13 cd 3e bc 44 88 63 3d 35 ce 33 3d 58 72 03 bd
       -0.011645573 0.055549875 0.043897826 -0.03209147
000150 6a 16 24 bd ce da 8b bd e2 fd 09 bd 5f bf 65 bd
       -0.04006044 -0.06828843 -0.033689387 -0.05609071
000160 17 3d 56 3b aa d9 81 bd 87 ca e0 bc ec db 89 3d
       0.003269022 -0.06340344 -0.027440323 0.067314
000170 65 de 8a bd 36 ed 64 bd 60 14 73 3d 10 4c c6 b9
       -0.067807 -0.055890284 0.059345603 -0.00037822174
000180 25 4c ce bc 6a 71 da bb 19 bd 55 bd 87 22 33 3d
       -0.025182793 -0.006666352 -0.05218229 0.0437341
000190 12 aa ad 3d 28 92 9d bd 8e e4 d6 3c 94 cb ab bd
       0.08479704 -0.07693893 0.02623203 -0.08388439
0001a0 57 9c 11 bd fa ec 28 3d 17 47 95 3d f2 d6 06 bd
       -0.035549488 0.041241623 0.0728895 -0.03291983
0001b0 6f 17 9b 3d 6a 5e 30 bb b8 ce 3c 3d 16 95 ad 3b
       0.07572829 -0.0026911744 0.04609558 0.0052973134
0001c0 6a 80 79 bc 31 df d4 bc d4 69 ec 3c cd 00 43 3c
       -0.01522837 -0.025985332 0.028859057 0.011902046
0001d0 a3 dd 42 bd 60 b6 24 3d ee 67 9e 3c b2 d0 92 3d
       -0.04757465 0.04021299 0.019336667 0.07168712
0001e0 db c1 87 bc 18 97 a9 3d 67 72 c7 3c a1 83 74 3d
       -0.01657193 0.08280772 0.024346543 0.059695844
0001f0 81 25 9c bd d2 b2 89 bc 81 32 69 bd fc a6 b9 3d
       -0.07624341 -0.016808901 -0.05693293 0.09065053
000200 41 01 69 bc 1f 7f e2 3d 7f e6 c7 3c c0 cc be bd
       -0.01422149 0.11059403 0.024401901 -0.09316397
000210 48 05 cd bc d4 44 45 bd ff b0 9a 3d c9 5c 29 be
       -0.025026932 -0.048161343 0.075532906 -0.16539301
000220 72 9c 7e 3d 31 0e 5f 3d 6c 97 dc 3b fb 22 9e 3d
       0.062160917 0.054456893 0.006731918 0.07721516
000230 cc 26 c9 bb ec 9f 2b bd 9c 43 f8 bc 11 63 19 3c
       -0.006138658 -0.04190056 -0.030305676 0.009361998
000240 3e bd e9 3c d4 57 a5 bd 8e 44 10 bb 9c c1 95 bd
       0.02853262 -0.080733925 -0.0022013518 -0.07312319
000250 0d c7 41 bd 64 e8 82 3d 87 0a 47 3d be 24 6c bd
       -0.04730897 0.06391981 0.048594024 -0.057652228
000260 1c eb 41 3c 3f 1d 92 3d d6 97 9f bd 3c 34 75 3d
       0.01183584 0.071344845 -0.07792632 0.059864268
000270 5a d7 30 bb 30 32 da bd a7 19 a9 3d d1 23 5d 3d
       -0.0026983828 -0.10654104 0.08256846 0.053989235
000280 ec 0f 72 bd 4d 04 b3 bc 69 60 98 3d 20 87 d5 3c
       -0.059097216 -0.021852637 0.07440264 0.02606541
000290 91 86 02 3e 0f b0 3f 3d ff 6e b2 3d 2d 32 01 b9
       0.12746646 0.046798762 0.08712577 -0.0001232109
0002a0 a0 9b d7 3b 0c 22 8d 3d 6b 6f c4 3c 4c 64 28 bd
       0.0065798312 0.068912596 0.02397891 -0.041111276
0002b0 3c 51 8c bd 94 b6 4a bd ee 61 c1 3c 4f 37 77 bc
       -0.06851432 -0.049490526 0.023606267 -0.01508887
0002c0 4b 10 84 bc 00 4f a1 3c de 0c 0e 3e d9 17 08 3d
       -0.01612105 0.01969099 0.13872096 0.033225868
0002d0 70 2e b8 bc 3c 3a bf 3d a9 f1 2e 3c 8d 4c 50 bd
       -0.02248308 0.09337279 0.010677733 -0.050854255
0002e0 67 5a 42 bd 79 3a 89 bd 50 23 7d 3c 75 0b 60 bd
       -0.047449496 -0.06700606 0.015450314 -0.054698426
0002f0 ac 45 ed bc 42 8d 40 3d a8 ce bf 3b 19 c3 2c 3d
       -0.028963886 0.047009714 0.0058534928 0.042178247
000300 4c 07 27 bd 20 29 31 3d e3 3f 76 bd 89 45 59 bd
       -0.040778443 0.04325211 -0.06011952 -0.05304483
000310 83 ed 78 bd 2f 69 0f be a2 4c 27 3d 2a ce 76 bd
       -0.060773384 -0.14004968 0.040844567 -0.060255207
000320 6d 32 cb 3c 39 e4 1f bd 6b f3 c6 3d 5a f3 46 3d
       0.024804318 -0.03903601 0.09714397 0.048571922
000330 83 93 63 ba e4 49 e0 bd 7c b9 17 bb 8e fb b4 bc
       -0.0008681344 -0.109515935 -0.0023151329 -0.022092607
000340 e8 32 98 3d 80 ed 21 3d 09 3f 82 bd f2 60 2f bc
       0.074315846 0.03953314 -0.06359679 -0.010704266
000350 6e 8e f2 3d 68 e4 78 bd 1f 00 39 3d c7 48 71 3d
       0.118435726 -0.0607647 0.04516613 0.058907297
000360 31 50 60 3d 25 c7 ad 3d 09 d8 b3 3d 7e 1f 28 bd
       0.054763976 0.084852494 0.0878144 -0.04104566
000370 38 bb 3a 3d 71 83 b0 bd 93 5b 8c bd 8a 55 af bc
       0.045588702 -0.086188205 -0.06853404 -0.021403093
000380 c6 09 a3 bd b0 71 9e b9 c1 54 ff 3d 7d 64 f5 3c
       -0.079608485 -0.00030220812 0.124673374 0.029955143
000390 fb e2 ef 3c c3 69 ae bd 5a f2 dd bc 41 c6 63 bd
       0.029283037 -0.08516266 -0.027093101 -0.05560899
0003a0 2a b4 41 bc 52 95 aa bd 4a e0 1c bd 60 05 48 3d
       -0.01182274 -0.08329262 -0.038299836 0.04883325
0003b0 56 e7 f4 3d 51 e9 b7 bb 02 86 d4 3d 31 38 93 bd
       0.11958186 -0.0056125303 0.103771225 -0.07188452
0003c0 ff 01 79 3d 69 1f 93 3d 15 80 5b 3d 66 52 16 bd
       0.06079292 0.071837254 0.053588945 -0.036699675
0003d0 62 f5 aa bd fb 4b 1e bd f7 f1 53 3d eb d5 87 bd
       -0.08347584 -0.03864668 0.051744428 -0.066325985
0003e0 1b 9a 4e 3d 23 e4 b7 3d 43 6e aa 3d 2b 09 db bd
       0.050439935 0.089790605 0.08321812 -0.10695108
0003f0 86 68 2d bd f7 01 a8 3d 12 00 a6 bd 13 ab 00 bd
       -0.04233601 0.082035 -0.08105482 -0.03141315

fc2.bias f4 [84]
000000 87 ae e2 bb 8d cd 15 bd 9d da 21 3c 9e 88 8b bd
       -0.006917778 -0.03657298 0.009878782 -0.06813167
000010 98 ec 91 bc 7d 14 4f bd 41 c7 4e 3d 25 b9 10 bd
       -0.017813012 -0.05055665 0.050482992 -0.035332818
000020 64 14 e6 3d 72 77 ca 3d 77 4c 73 3d 95 a8 9c 3d
       0.11234358 0.09886064 0.059399094 0.07649342
000030 86 a2 12 bd 9e 01 3b bd 73 34 19 bd 05 4c 16 3d
       -0.035799526 -0.04565584 -0.037403535 0.03669359
000040 b8 dd 27 3c d9 4c bc bd cd 1f bd 3d 18 37 fe bc
       0.010245733 -0.09194345 0.09234581 -0.03103213
000050 ce 4e 18 bd 34 d0 28 bc 6b 44 9e 3c f2 e9 b7 3c
       -0.03718453 -0.010303546 0.019319734 0.022450421
000060 52 39 b3 3c 66 b8 d5 3c 2b c6 2b 3d 40 51 c7 3d
       0.021877918 0.026088905 0.041937035 0.09732294
000070 5e 14 86 3d 59 4a 8e bd 2d 35 8d 3b 7e a5 9c 3d
       0.065468535 -0.069477744 0.0043093176 0.07648753
000080 48 07 1e 3d 54 92 ac bc 43 24 42 bc b8 f9 87 bd
       0.038581163 -0.021065868 -0.011849466 -0.06639427
000090 85 47 08 3d 36 ed d0 bc 73 3b b1 bd 0c 4a ec bc
       0.03327133 -0.025503736 -0.08653917 -0.028843902
0000a0 e6 a4 19 bd 10 1b 6c 3d 7b d9 f9 3d 60 3c 6c 3d
       -0.037510775 0.057642996 0.12199684 0.057674766
0000b0 2d f9 0f bd f8 9e 00 bc 3e f2 86 3d 22 2d 10 bc
       -0.035149742 -0.007850401 0.06589173 -0.008799823
0000c0 49 dc 14 bd bb 08 da 3d ed 88 91 bd 8a 79 b6 bc
       -0.036342893 0.106461965 -0.07106195 -0.022274751
0000d0 68 ce 5e bc 91 93 ac 3d 3e 16 2f 3c ef c9 b3 bd
       -0.013599016 0.084265836 0.010686455 -0.0877875
0000e0 6c c0 a8 bd 99 17 a9 bd d1 b3 24 3d 74 d2 07 bb
       -0.082398266 -0.08256454 0.04021055 -0.0020724805
0000f0 8a 3d 61 3a 42 12 30 bd 22 55 bf 3c 0f a4 b5 bd
       0.0008592239 -0.042986162 0.023356024 -0.08869182
000100 01 b2 d2 3d 8e c5 08 bd 9f cc 67 3b 6e c9 9c bd
       0.10287858 -0.033391528 0.0035369766 -0.07655607
000110 59 e6 6c 3d 49 e0 ca 3d 30 7c a5 bd 1b 6b d0 3d
       0.057836864 0.0990606 -0.080803275 0.10176679
000120 bd 26 12 bd e0 a6 9c bc a9 b8 2d bd 1f 3c 64 3d
       -0.035681475 -0.019122541 -0.042412434 0.0557214
000130 c5 45 92 3d 66 7e 21 3c 63 87 0c bb f1 af 34 3d
       0.07142214 0.009856796 -0.0021443001 0.044113103
000140 ff b0 f1 3b 0a 54 8d 3c c9 4f 27 3d bd 08 6f 3d
       0.007375836 0.017251987 0.040847573 0.058357943

fc3.weight f4 [10, 84]
000000 7e 3b bc bd d8 79 65 bc 4b 09 3f 3e ff b9 e0 3c
       -0.09191035 -0.014006101 0.18655889 0.02743244
000010 cc cc 63 3e ce 08 fd 3c 00 bf fe 3c f5 fd ef bd
       0.22246093 0.030887987 0.031096935 -0.1171836
000020 9f 8e 8a bd 86 14 82 bc a1 5e f2 3d bd 30 f5 bd
       -0.06765484 -0.015878927 0.11834455 -0.11972187
000030 05 68 dc bc 2b 52 59 bd ae f9 c6 3d 77 7f ed bd
       -0.02690507 -0.053056877 0.09715591 -0.115965776
000040 f6 9d 15 3e 90 31 4a 3d d4 34 ee 3d 2e 74 be bd
       0.14611039 0.049363673 0.1163117 -0.09299503
000050 8a 9e 81 bd c6 8f 13 be c6 19 9f 3c fe 5f 1f 3e
       -0.06329067 -0.14410314 0.01942147 0.15563962
000060 d2 44 d0 3d af ac a8 3b ea 73 5f bc b4 a0 1a 3e
       0.101693764 0.0051475386 -0.013638476 0.15100366
000070 13 be 8b bd 14 0b 60 3c 11 01 5c 3e f3 42 e3 bd
       -0.06823363 0.013674516 0.21484782 -0.11096754
000080 4d f9 a1 bc b5 7b 80 bc d2 fd 3d 3e 47 2f bc 3c
       -0.019772196 -0.015683988 0.18553856 0.022971762
000090 04 c6 fc 3b 58 cc 45 3e 19 47 ce 3d e1 42 69 bd
       0.007714035 0.19316232 0.100721546 -0.056948546
0000a0 5f 39 4f bd 83 8b 9a 3c 3d be 2d 3d 2b 99 6c 3e
       -0.050591823 0.018865352 0.042417753 0.23105304
0000b0 64 8c 16 bc 99 2e b7 bd 97 18 28 bc e3 fe 8c 3d
       -0.009188745 -0.08944435 -0.010259769 0.06884553
0000c0 c0 5f cc 3c 69 56 01 bb a8 a8 97 bc ca 2b 15 3d
       0.024948 -0.0019735342 -0.018513039 0.036418714
0000d0 06 66 2c bd c8 0a 84 bd 80 62 1b 3d c4 59 ac bd
       -0.042089485 -0.06447369 0.037935734 -0.08415559
0000e0 c0 a3 85 3c 71 71 34 3c 0b 40 9f 3d 02 9c 17 3d
       0.016313434 0.011013375 0.07775887 0.037014015
0000f0 3e 23 12 3e cb 3a d3 bc 01 52 91 3c 1c 7c 37 3c
       0.14271256 -0.02578487 0.017739298 0.011199024
000100 af 7b 6f bd 77 48 7e 3d fb 5d a0 bd 32 f8 01 bc
       -0.058467563 0.062080827 -0.07830425 -0.0079327095
000110 53 f2 25 be 9f dc 30 bd 5e c7 29 3d 8d 39 9a be
       -0.1620572 -0.04317915 0.041449897 -0.30122033
000120 75 ed 83 bd 71 1b 07 be 20 c2 5c be e1 48 75 be
       -0.06441776 -0.13194062 -0.21558428 -0.23953582
000130 6c e8 ae bc 84 e0 77 3a 62 fd 11 be bc 3a 04 3d
       -0.021351062 0.00094557577 -0.14256814 0.032282576
000140 f7 bb da 3c 1a e8 47 3d 1a 47 b7 bc d6 ba 51 3b
       0.026700957 0.048805334 -0.022372771 0.0032002232
000150 dc 1b c6 3d e5 c8 21 be dd 58 98 be ca 2a 68 bd
       0.096732825 -0.15799291 -0.29755297 -0.05668143
000160 7f 78 0a be 6b 67 8d bd b1 d6 34 3d cb 14 a5 bc
       -0.13522528 -0.06904491 0.04415006 -0.020151516
000170 8a f4 27 3d 4a 58 48 3e bf bb 25 be 22 2f d0 3c
       0.041004695 0.1956493 -0.161849 0.0254131
000180 0f dc da bd 75 b6 85 3d a3 29 31 3c 5a c7 be 3c
       -0.10686504 0.065289415 0.01081315 0.023288418
000190 aa 52 fc 3d 2a d7 af 3d 1f 5a 60 bc 1e e1 be 3d
       0.123204544 0.08585961 -0.013693362 0.093202814
0001a0 28 e5 09 3c 97 43 09 3e 0b ed c9 bd d8 44 52 bd
       0.0084164515 0.1340469 -0.098596655 -0.051335186
0001b0 93 c0 dd bd 4f 33 ae bd e8 ce e9 bd 7d 43 22 bd
       -0.10827746 -0.0850588 -0.11416417 -0.039615143
0001c0 cf 90 8d bd f9 b7 bd 3d 3a 50 42 bd b2 41 4c 3d
       -0.06912386 0.092636056 -0.04743979 0.04986734
0001d0 fa 78 10 3d 22 e8 14 bc 69 ed cd bd 4b 0a 18 bd
       0.035271622 -0.009088548 -0.10055048 -0.03711919
0001e0 99 41 41 3d c4 83 db bd d8 fc e3 3d 93 f6 bf bd
       0.0471817 -0.10718492 0.111322105 -0.09373202
0001f0 85 17 b2 bd 7e 12 1b be b7 85 84 3e 88 28 c8 3c
       -0.08695892 -0.15143773 0.25883266 0.02443339
000200 d5 7f 2f bd 15 70 4c be b5 e4 5d 3e fb b1 a6 be
       -0.04284652 -0.19964631 0.21669276 -0.32557663
000210 42 e9 67 bd e8 af b2 bd 7d 13 45 ba 08 40 93 bd
       -0.056618936 -0.08724958 -0.00075178576 -0.07189947
000220 f8 3b 97 bd 8f 99 5b 3e 0e e2 cd bd 8b 26 2b 3e
       -0.07384485 0.21445297 -0.10052882 0.16713922
000230 c1 bc 27 bd 0d d3 e0 3c e8 a7 ad bd 15 48 e4 bc
       -0.040951494 0.027444387 -0.08479291 -0.027866403
000240 4f 82 07 be 01 32 ef bd d7 12 be bc d3 a7 90 bc
       -0.13233303 -0.11679459 -0.023202343 -0.01765815
000250 e5 9e 11 3e 91 45 8c 3d 9a f1 6c 3c 5f 8d de 3d
       0.1422077 0.06849206 0.014461899 0.10866808
000260 45 72 90 bd f9 96 85 3e 69 95 f2 bc 31 b0 99 3e
       -0.07053045 0.26091745 -0.02961226 0.30017236
000270 85 2d 6b 3e cc 39 e5 3c d3 4f 73 ba ae 6b 0b 3e
       0.22966583 0.027981661 -0.0009281609 0.13615295
000280 53 83 19 be 97 63 30 bd b0 b1 80 bd aa 17 0f be
       -0.14991502 -0.043063726 -0.06283891 -0.13973871
000290 2a c3 31 3d 5a 73 1c 3e d5 6a b0 bc 0a 3f e9 bc
       0.043399014 0.15278378 -0.021535316 -0.028472442
0002a0 4f f9 9c 3c 92 1b 3e be a7 5d 0e be 22 4f f5 bc
       0.019161848 -0.18565205 -0.13902913 -0.02994496
0002b0 ea de 12 3e 3c de 38 bd 86 99 07 3e 3e 02 b6 3d
       0.14342847 -0.045133814 0.13242158 0.088871464
0002c0 1f c3 66 bd 6c 91 af bc 16 cf fe bc 73 fe 91 be
       -0.056338426 -0.021431647 -0.031104606 -0.28514442
0002d0 1a d7 cf 3d ef 36 be 3d fd 22 4d 3d ab 9d 52 3e
       0.10148449 0.092878215 0.050082196 0.20567958
0002e0 4b 0e 1f bd 53 79 6c 3d b6 22 97 3d d8 94 d4 bd
       -0.03883199 0.05773289 0.073796675 -0.10379952
0002f0 ba 99 8a 3d b9 c4 05 be 1d 25 e2 3a 39 d6 87 be
       0.06767602 -0.13063325 0.0017253492 -0.26530626
000300 d3 e6 68 3d be 6b f6 bb 6b 22 28 3e b1 80 09 be
       0.056860756 -0.007520168 0.1641938 -0.13427998
000310 7a 2d 00 3e 20 84 06 be 09 96 f1 bd a4 b9 0f bd
       0.12517348 -0.13136339 -0.11796195 -0.03508915
000320 b4 94 5b 3e 7d 78 5a 3d 3c d3 b0 3d 18 60 c5 bd
       0.21443444 0.053337563 0.0863404 -0.09637469
000330 4f 37 2b bd 5a 72 1f 3e 22 2f c1 3d d0 32 7b bd
       -0.041800793 0.15570965 0.09432818 -0.061327755
000340 49 1c 22 3d 7f 30 85 3c 04 b9 50 3e 92 de f7 3c
       0.039577756 0.016258476 0.20383078 0.030257497
000350 30 cd 09 bd 7c 96 e4 3c 01 18 5e 3d d2 bb 0e be
       -0.033642948 0.027903788 0.05422211 -0.13938835
000360 70 41 ae 3d a3 7b 14 3c 33 55 c8 bb 17 e0 37 3c
       0.08508575 0.00906268 -0.006113672 0.011222861
000370 3c 02 97 3d 54 f4 f8 bc ac 79 ee 3c 5a b4 25 3e
       0.07373473 -0.030389942 0.029110752 0.1618208
000380 f2 5b a7 3c b2 cf cf 3d 3b a0 50 3e f5 ca 86 ba
       0.020429585 0.101470366 0.20373623 -0.0010283875
000390 5a 16 a5 3a 4a 24 e9 3d 65 72 dd 3d 3c 5a b7 3d
       0.0012595162 0.11383875 0.10812835 0.08952758
0003a0 6f 41 3b 3d 96 a9 63 3c 4a 5a 06 bd 7d 9f f8 3d
       0.0457167 0.013895413 -0.03280095 0.12139795
0003b0 e9 06 ee 3d a7 a8 26 be 16 bc b1 3d 25 35 88 be
       0.11622412 -0.16275273 0.08678453 -0.26603046
0003c0 71 b2 60 be 90 4f 77 3d 30 b6 e2 3d 2a 32 8b 3d
       -0.2194307 0.06037861 0.11069906 0.067966774
0003d0 38 e0 04 3e ae f2 42 3e 3b 25 1e bd 86 47 26 bc
       0.12976158 0.19037887 -0.038609724 -0.010148888
0003e0 b7 65 03 bd ff 8d 18 3d 36 3d 4a 3d 0b 2e 08 3e
       -0.032079425 0.037244793 0.04937478 0.13298814
0003f0 33 ce bb bd 3f 82 5d be 02 24 00 3c 0c 7f 63 bd
       -0.09170189 -0.21631716 0.007821085 -0.055541083

fc3.bias f4 [10]
000000 f1 ef 11 be 0b e3 00 3e 32 b2 99 3c 4a a8 ca bc
       -0.14251687 0.1258661 0.018761728 -0.02473845
000010 e6 01 86 3d 47 aa aa 3d e9 e8 f0 3c 1b b3 55 3d
       0.06543331 0.08333259 0.029407935 0.05217276
000020 76 fe d9 bc cc 9e 6a bc
       -0.026610594 -0.014320087
